.dart_tool/chrome-device/Default/optimization_guide_prediction_model_downloads/a827ed34-8706-46f6-99d0-21d377bbb029/model.tflite (tflite, 410364 bytes, 166 tensors)

context_transformer_0/bottleneck_input/norm/add f4 [32]
00000000: 10dc 073e 40f5 ccb7 e036 8ebc 3339 19be
00000010: 68ef cabd 21c8 9b3d 9741 07be 98f6 40be
00000020: ac22 fa3c a3f8 27be 8004 ba3d 3133 843d
00000030: 4ca4 de3d 8c88 583d dfc9 193d c4cb 70bd
00000040: 5e93 1a3c 9646 f83c bd0f adbc dcfb 9cbe
00000050: a093 583c 7494 f5bc e84b 15bd cdb1 1fbd
00000060: 76a5 c53c b685 52bc bc75 82bd e2c1 e8bd
00000070: de21 93be 6e41 703e d4fb f13c 7296 fc3d
0.13267541 -2.4432898e-05 -0.01736015 -0.14963226 -0.09908944 0.07606531 -0.13208614 -0.18844068
0.030534111 -0.16403441 0.090828896 0.064550765 0.10871181 0.052864596 0.037546035 -0.058788076
0.009434549 0.030307095 -0.021125669 -0.30660903 0.01321879 -0.029978015 -0.036449343 -0.038987923
0.02412675 -0.012849262 -0.06370112 -0.11365105 -0.28736776 0.2346246 0.029539026 0.12333383

context_transformer_1/bottleneck_input/norm/add f4 [32]
00000000: 6675 af3c 927d 70bd 230b 10bd 5a63 83bc
00000010: 0291 dbbc e444 bbbc d20b 5fbd 3bac ac3c
00000020: 1847 a53d 9886 81bd 37ee 16be 90ce 893e
00000030: 1ec4 8e3d 2c5b dcbd a8d2 043e dcbe 053d
00000040: 6ee6 d23c d07e ccbc cf94 be3c 428e 2a3d
00000050: c268 f43d e46e d4bb b02a 3cbb 01b5 b4bd
00000060: ab4a 923c 9cda ce3c 9c4e 923c 0aae 90bd
00000070: 249a 2c3e c74f 4dbc 0e73 793d 6eff 463e
0.021418285 -0.058713503 -0.03516687 -0.016038585 -0.026802544 -0.022859998 -0.054454632 0.02107822
0.08070201 -0.063245 -0.14739309 0.26915407 0.06971 -0.10759577 0.12970984 0.03265272
0.025744643 -0.024962813 0.023264317 0.041639574 0.119340435 -0.0064829458 -0.0028711967 -0.08823586
0.01785787 0.025250725 0.01785975 -0.07064445 0.16855675 -0.012531227 0.06090074 0.19433376

mention_transformer_0/bottleneck_input/norm/add f4 [32]
00000000: 8a02 febd e9c8 373d 32c7 3fbd 0c82 713d
00000010: 38bf 143e ded7 2e3c cc7c 18be 46ee 193e
00000020: ca81 71bd e652 23be ad1e 07bd 8ca2 41be
00000030: a6d0 6b3a 9582 0bbe c450 db3c 7069 debc
00000040: c724 7abe 1b6d be3d 457c 46be a21b cbbd
00000050: 9a4a 3c3d b0d2 1c3e 429d 00bc ea50 163e
00000060: 15a1 693c daa6 51be 315a c8bc a294 07bc
00000070: d0f3 1a3d 17e9 c83d a2bf 46bd 3d29 8ebc
-0.12402828 0.044869337 -0.046820827 0.058961913 0.14526069 0.010671584 -0.14891356 0.150323
-0.058961667 -0.15949592 -0.03298824 -0.18909663 0.00089956296 -0.13624032 0.02677191 -0.027149886
-0.24428092 0.09298154 -0.19383343 -0.0991738 0.045969583 0.15314746 -0.007849993 0.14679304
0.014259596 -0.20473805 -0.02445707 -0.008275183 0.037830174 0.09810083 -0.0485226 -0.017353648

mention_transformer_1/bottleneck_input/norm/add f4 [32]
00000000: 9649 d83e 68f7 593d 088d cebb 15ad f0bd
00000010: d741 f7bd 17e5 81be 8a97 97be 351b c5bd
00000020: 20bd c4bd 5b56 55be 287e 81bd 176e 7dbe
00000030: 5239 c53c 939b a5bd 714d 883d bdb0 a2bd
00000040: d656 763e 5346 1abe a9b5 c6bd f2df 77be
00000050: 71ca f8bd 26f6 0ebe 2ad7 a3be 36db 11bd
00000060: c595 cc3e dea5 59be 3bb6 4fbe 3ffb 083e
00000070: 79f7 febd 7b53 853e c66c 22bc f974 0cbe
0.42243642 0.05321446 -0.0063034333 -0.11751763 -0.12073105 -0.25370094 -0.29607803 -0.0962433
-0.09606385 -0.20833723 -0.063228905 -0.24749027 0.024075184 -0.08086314 0.06655396 -0.079438664
0.24056563 -0.15065889 -0.09702618 -0.24206522 -0.12147988 -0.13961086 -0.32000095 -0.035609446
0.39958015 -0.2125468 -0.20284359 0.13377093 -0.124495454 0.26040253 -0.009913629 -0.13716497

context_transformer_0/attention/value/add;context_transformer_0/attention/value/einsum/Einsum;context_transformer_0/attention/value/add/ReadVariableOp/resource f4 [32]
00000000: 60c7 533d 0c4a 043d 34c3 41bd c71a b3bc
00000010: 6fc7 62bd 0903 cd3c c4f9 c7bc c471 dfbc
00000020: 45a3 53bd 7fbc 8c3d 9fbe 93bd 238b a6bc
00000030: ffcd 58bd 2dac 9cbd 609d 8bbd 7428 36bd
00000040: 28aa 64bd 25cb 5abd 7db6 683d 5ef7 78bd
00000050: 41e0 903d f1ee 723d 690d 2c3d 34e7 0cbd
00000060: 9008 35bd 228a 74bd 79dd 1dbd fbc6 773d
00000070: 53f5 1e3d d9c7 363d 7446 193d e70c 673d
0.05170381 0.03229718 -0.0473053 -0.021863354 -0.055365976 0.025025861 -0.02441109 -0.027275927
-0.051669378 0.0687189 -0.072140925 -0.020330017 -0.05293083 -0.076500274 -0.06817126 -0.044472173
-0.055826336 -0.05341639 0.05681466 -0.060782783 0.07074023 0.059309904 0.042004976 -0.03440018
-0.04419762 -0.059702046 -0.03854129 0.060492497 0.03880818 0.044624183 0.037420705 0.05640879

context_transformer_0/bottleneck_input/norm/mul f4 [32, 32]
00000000: 7056 3f3e 22e1 c73d 6fe3 5e3d 5295 fd3d
00000010: cc6d 53be a3f8 86be 9772 c2bd 0f92 1f3e
00000020: c9d0 1c3d a10e f3bd 2387 1ebe a209 84be
00000030: 0ec4 3cbc f9aa 06be feb1 b63e 5da3 4fbe
00000040: 15b6 693d 9caf 01be cb53 eebc 0ce0 fbbe
00000050: bce9 243d 7310 bf3c d2e8 07bf 1677 c6bb
00000060: 87a3 51be 15b3 ae3e aff8 3d3e 592e 3d3e
00000070: fd5c 4d3e 9337 953d b8ad 12bd b8b7 75bd
00000080: c8f7 0f3e 5a72 ceb7 ede2 763e 6de0 c23d
00000090: 3dbc 743e fe16 5bbc 18e3 b53c 7ee2 42be
000000a0: 08de 98bb 52cf 1cbd 9242 70bb d3e3 203e
000000b0: b1af 92bd 4902 473e 977d f03b d215 913e
000000c0: aab2 583d c1a4 adbd ad01 683e 32ef 293e
000000d0: f669 57be 1414 4fbe ae48 ff3d 6367 a8bd
000000e0: 4374 073e 09b1 c4bd 65ef e437 36ca aa3d
000000f0: 5002 a6bd 40cc ca3d be74 e33c c75e 803e
00000100: f85d 00be ba4b a83d c41d c23d f6cd d13d
00000110: 6709 c43d a940 13be 3d7a 023e fce3 813d
00000120: b89f c5be fe23 a2be b89f 913e 663e 81bd
00000130: 166f 1e3e 9f4d 123e 345f 823e 1ec5 63be
00000140: b489 15be 50e7 8bbe 29ad 4ebe fca7 b53d
00000150: ea50 0e3e d373 c5bd cfb7 92be 479e 023d
00000160: 438c 17be 3ceb ad3d e9c6 acbd 110c 34bd
00000170: 01dc f03d a93e 0c3e e236 f7bb 3498 423c
00000180: a428 10bf ca62 273f 2ebb f83d aff2 413e
00000190: 8628 463e f3fb 80be d2d8 903e 2e10 b0be
000001a0: 3b76 2dbe b913 943e e7d1 703d d1ea de3e
000001b0: 37dd f03e 9114 973d e888 d8bd 1eb0 7c3e
000001c0: 0bf0 e7be a5c3 4c3e 8047 80bd 1e00 993d
000001d0: f417 d93d f64d 58be 08bd 723e 81f3 bf3b
000001e0: 92e6 1f3f 4b8f 813e 01f3 57be 7886 343d
000001f0: 4519 e83e 949d 473f 25c8 c3be 64ad 69bb
00000200: deaf 183e d092 d4be 227e f33d 336e 39bd
00000210: 3db9 0d3e fd10 f4bd 1d8a b73e 80c0 86be
00000220: cb1a db3e b714 703d 9a1b b33e 3dc5 c33d
00000230: 7c91 aa3d 7a7b 85be 92e7 603d ca91 673e
00000240: 1ee9 14be 25f4 d1be 6daf 0bbc 0647 a53d
00000250: 8365 1ebe e4b6 5fbe 62a0 22bf cee7 dfbd
00000260: 31ec 9cbe baba 26bd ea9d a33d f6a0 e3bd
00000270: 2537 a4bc 8653 8b3e d14e 023f a090 fabe
00000280: 25ff 8a3c e508 c5bd 237f 883d ed31 fc3d
00000290: 9780 7abd 0281 793e b052 81be 6671 0fbd
000002a0: d264 9b3d 1d2a fdbd 40f5 7ebd 493e 623e
000002b0: 3c01 783b 5773 683e e6f6 febd 1930 c03a
000002c0: 238c f13e f5fa 633e 2870 89be dba6 a73d
000002d0: dcf0 2e3e 06ec 573e 1736 28bd d2ac 853d
000002e0: 2304 ee3e bc5b 143e 1677 ecbd 652d b3be
000002f0: 94a3 db3d a686 a3bd 4313 f53d 27a2 90be
00000300: 2fb2 c93e fc44 f2be 34ef d6bd e4bb 343e
00000310: fb86 84be 828b 68bf dc43 2ebd 287f b23d
00000320: 8286 55be ad4b e3be 02bf 4ebe 6bef 863d
00000330: 4474 33bd c369 dbbe 674e 99be 82e7 063e
00000340: 2204 a0bd b5a1 96be c46b b0bd c4c0 2a3e
00000350: bf07 883e b4b0 48be 5764 cebc 1798 38be
00000360: 2a84 9cbe 7b91 9ebd ad62 27be d541 9cbc
00000370: d52d 8f3d 835d 533f 8dd9 6bbe f33a 223e
00000380: 7208 9ebd 5a39 a5bd 6092 4fba a4b1 923c
00000390: 9aa2 dd3d ccd5 e2bd 22ee cb3d 9672 7bbd
000003a0: d582 33be 7abe a1bd 91f9 39be 4993 8c3e
000003b0: fe88 91bd 86ab 1cbd 89a5 70be 6dea 91bb
000003c0: 1e62 acbd fa50 81be 65d2 883e a535 0d3e
000003d0: e294 44be 322c 82be 86ff 0cbe 62c9 8fbe
000003e0: a6b6 053e e5c0 0dbe d5dc 873d 39fd be3d
000003f0: 2d51 9ebc bf78 223e 2669 2bbe 70fe c9bd
0.18685317 0.097597376 0.054416116 0.12381996 -0.20647353 -0.2636157 -0.094945125 0.1558306
0.03828505 -0.118680246 -0.15481238 -0.257886 -0.011521352 -0.13151158 0.35682672 -0.20277162
0.057058413 -0.12664646 -0.02909269 -0.49194372 0.04026197 0.023323273 -0.5308963 -0.0060566766
-0.20472537 0.34121004 0.18551897 0.18474711 0.20055003 0.072859906 -0.035810202 -0.05998966
0.14059365 -2.4610363e-05 0.24110003 0.09515462 0.23899932 -0.013372181 0.022203013 -0.19031712
-0.00466514 -0.038283654 -0.0036660773 0.15711908 -0.07162417 0.19434465 0.00733919 0.2833696
0.052904762 -0.0847869 0.2265689 0.16595152 -0.21036515 -0.20222503 0.124650344 -0.082228445
0.13227944 -0.09604079 2.7291195e-05 0.0833935 -0.0810591 0.09902239 0.027765628 0.2507231
-0.12535846 0.08217569 0.094783336 0.10244362 0.09572106 -0.14380135 0.12741943 0.06342313
-0.38598418 -0.31668085 0.28442168 -0.0631073 0.15472063 0.14287423 0.2546326 -0.22243163
-0.14603311 -0.27324915 -0.20183243 0.08869931 0.13898054 -0.09641232 -0.2865586 0.031889226
-0.147996 0.08492133 -0.084363766 -0.04395682 0.117607124 0.13695778 -0.0075443843 0.011877108
-0.5631201 0.65385115 0.12145077 0.18940233 0.19351396 -0.25192222 0.2829042 -0.34387344
-0.16939633 0.28921297 0.05879393 0.43538526 0.47043774 0.073769696 -0.10572988 0.24676558
-0.45300326 0.19996507 -0.062636375 0.074707255 0.10600272 -0.2112349 0.23704922 0.0058578853
0.624612 0.25304636 -0.21088792 0.044073552 0.4533178 0.7797482 -0.38238636 -0.0035656327
0.14910838 -0.4151826 0.11889292 -0.04527111 0.13840194 -0.11917303 0.3584756 -0.2631874
0.4279388 0.058613505 0.34981996 0.095591046 0.0832853 -0.26070768 0.054908343 0.22614208
-0.14542052 -0.4100658 -0.0085257115 0.08070187 -0.15468411 -0.21847111 -0.63525975 -0.10932885
-0.3064895 -0.04070542 0.07989104 -0.11114685 -0.020045826 0.2721216 0.50901514 -0.48938465
0.016967366 -0.09620837 0.066648744 0.1231421 -0.06115779 0.24365619 -0.25258398 -0.035020255
0.07587589 -0.12361548 -0.062245607 0.22094072 0.0037842533 0.22700249 -0.12449436 0.0014662772
0.47177228 0.22263701 -0.2684338 0.08186122 0.17084068 0.2108613 -0.04106721 0.065271035
0.4648753 0.14488119 -0.11546151 -0.3499557 0.107245594 -0.079846665 0.119665645 -0.28248712
0.39393756 -0.47318256 -0.10494843 0.176498 -0.25884232 -0.9083787 -0.042545184 0.087156594
-0.20852092 -0.44393674 -0.20190051 0.06588634 -0.04381205 -0.42854127 -0.2994263 0.1317425
-0.07813288 -0.29420248 -0.08614305 0.16675097 0.2656841 -0.19598657 -0.02519433 -0.18026768
-0.30569583 -0.07742592 -0.16346236 -0.01907436 0.06991164 0.8256456 -0.23032208 0.158428
-0.077164546 -0.080675796 -0.0007918235 0.017906971 0.108220294 -0.11075935 0.099575296 -0.061388575
-0.17530377 -0.07897659 -0.18161608 0.2745612 -0.07106207 -0.038249515 -0.23500647 -0.0044529946
-0.08417152 -0.25257093 0.26723018 0.13789995 -0.1919742 -0.25424343 -0.1376935 -0.2808333
0.13057956 -0.13843115 0.06633917 0.09325642 -0.019325817 0.15866373 -0.1673933 -0.09862983

context_transformer_0/kq_shared_bottleneck/norm/mul;context_transformer_0/kq_shared_bottleneck/norm/add;context_transformer_0/attention/key/einsum/Einsum;context_transformer_0/attention/key/add;context_transformer_0/attention/value/einsum/Einsum;context_transformer_0/attention/key/add/ReadVariableOp/resource f4 [32]
00000000: b8c1 293d 35c7 78bc f280 0bbd 8fa3 d23d
00000010: e249 bcbc 766a e3bc 7575 d8bd 0187 68bd
00000020: e589 9ebc c9b1 3f3d ea8e 2f3d 6905 5c3d
00000030: 7ead 1fbd ba3f 123d dd53 0e3d 3f28 12bc
00000040: 4590 68bc 5132 e63d 3330 c93d 90be 6f3d
00000050: 90bf 66bd 171e 8f3d c319 eb3b 3484 933d
00000060: 6839 043e 1613 debd 25b1 0dbe 9e2f f9bd
00000070: 1b9c c3bd 333e c83d 6a49 d73d 176c 9dbd
0.04144451 -0.015184213 -0.03405852 0.102851026 -0.022984449 -0.027760725 -0.10569278 -0.056769375
-0.019352863 0.04680041 0.042860903 0.053716097 -0.038983814 0.035705306 0.034747947 -0.008920728
-0.014194553 0.11240066 0.098236464 0.058531344 -0.056335032 0.06988161 0.007174702 0.0720295
0.12912524 -0.10843484 -0.13837107 -0.121672854 -0.09551259 0.097774886 0.105120495 -0.07686632

context_transformer_0/kq_shared_bottleneck/norm/mul;context_transformer_0/kq_shared_bottleneck/norm/add;context_transformer_0/attention/key/einsum/Einsum;context_transformer_0/attention/key/add;context_transformer_0/attention/value/einsum/Einsum;context_transformer_0/attention/key/add/ReadVariableOp/resource1 f4 [32, 32]
00000000: b822 b8bd 9626 223e 3a6c 1ebd 08c8 c33d
00000010: f22f 47be ae21 00be b507 953c ac4b 02be
00000020: d2ec 25be 6f63 17be 38a8 313e b1bc 1e3c
00000030: 9ff6 113e 10ca 13be 8bdb bfbd 8902 e23d
00000040: 0962 f93d 8edc 633e 1dd9 acbd 8aff 863d
00000050: 00f0 79be c8e8 3fbe 7b56 73bc 2bcc 383e
00000060: 7f9a 90bd d0bb 653d 6a33 613c 2c12 57be
00000070: ce9f 0a3e 889f 9ebc f2ce 05be cc0c 5fbc
00000080: daf0 3a3e b169 31be 5501 a33d e423 5bbe
00000090: a88d 7d3e d884 813e 1391 23bd 5ca4 933d
000000a0: 5aae 283e 4c20 493e 4374 0fbe abd4 a5bd
000000b0: 0a4e 6ebe 64a3 093e 82e4 f33c 2ad1 cebd
000000c0: b62c 34be 5d6b 82be 416f a53d 8d14 12be
000000d0: b949 7e3e 8233 513e d015 64bd 09bf 89be
000000e0: a351 9bbd 693e 1d3d 05d5 153d 9694 063e
000000f0: ed2b d5bd c156 773c 448f 493d 2cc1 bbbd
00000100: af70 513e 996f 22be 232c f23c 4587 4abe
00000110: f539 7f3e ccc6 623e fa05 97bd 6a87 afb9
00000120: b965 1e3e 073f 523e e4d6 21be 0fa4 a1bd
00000130: 36ad 81be d667 043e edb7 443c 216f 94bd
00000140: 2a5d 4cbe bb31 7ebe 3904 203e c01d 49be
00000150: 21d1 913e 7e3b 1a3e 4577 8dbc d55b 7dbe
00000160: 6e07 6ebd e965 783d bebc 053c 256d 9c3d
00000170: 5237 afbd 27e5 39bc 54be 2a3d d5f1 aabd
00000180: c069 b03d 31a7 eb3d 3039 0abd b7dc 98bd
00000190: 4b85 c73c bfef 113e 345e 643e f5a3 8abd
000001a0: 7ef8 63be d74b 29bd a129 5d3e eb46 dfbd
000001b0: 97bf 98be f4a9 b9bd aedc 90be 2019 b8bd
000001c0: c1cb cbbd 8e5b 5f3e 0d48 afbe 6b70 babd
000001d0: 9e6d 51be a9ec 59be d63e ebbe 5676 ddbb
000001e0: fa25 12bf 1a47 1e3e 8267 333e 77ad 89be
000001f0: 1d48 083e 8d8b 3d3c 4024 8bbe 1755 45be
00000200: 9b4c 673e f983 26be 0225 7d3d aaa9 46be
00000210: 380c 843e 5dcd 6c3e 16d5 5fbd 2726 ba3b
00000220: e054 053e d8c0 5b3e 80f4 fcbd 1f34 c6bd
00000230: 6ad1 95be 960f 063e 6adb 9bba 98b8 a2bd
00000240: dee8 53be c1d7 81be 784b 133e 7dd2 5dbe
00000250: 444b 8b3e 8463 2c3e 8c26 f03b f0df 8dbe
00000260: 28dd c6bd 1747 b93d 74e1 403d 05c8 9b3d
00000270: 3794 d4bd b749 9fbc acd5 8c3c 326a 12be
00000280: 7906 5b3e 716c 08be f2be b03d 9d7f 60be
00000290: e1ca 913e a3f0 833e a1cd 0abd 62d1 c4bb
000002a0: b327 0c3e 1d9a 5f3e 05b6 febd 961a c8bd
000002b0: 3760 87be bda4 1b3e bbf6 12bd 3949 8ebd
000002c0: e298 50be efd2 8dbe 5816 d13d fe73 6dbe
000002d0: 69a5 913e 04ea 0a3e 56d5 1a3c 940f 8abe
000002e0: f242 e7bd a1e4 863d 9488 6e3d 99b3 f43d
000002f0: ba7e a1bd b143 84bc 50e3 b93c c3d1 0bbe
00000300: bbf2 723d a712 24bd 3996 30bd 471e 7fbc
00000310: 1c05 c83d 30c7 2fbb 2716 5fbe cde8 e7bd
00000320: 16c6 ab3e 4975 a63d 22e6 e6bd b999 44bd
00000330: 1d12 35be 831c 593e cf9d 383e 68ad e9bd
00000340: ffe5 9d3c ff10 1abe ebdc 903e c72f 87be
00000350: c5d0 123e b1b8 eb3d 4d5d 783e 4c1c 5fbd
00000360: 62bb 573e bdab 72bd 946a 563d b8d5 d23c
00000370: 2703 e8bc ff84 e53d 470b 2e3d e84f 8a3c
00000380: c64d 6b3d ff38 07be f59c 583d eefd 7abd
00000390: 3020 003e f7d2 8e3d ef8a b6bd 56df b83d
000003a0: afe8 403e 5994 ff3d 93d2 3ebe 49f0 503c
000003b0: f836 99bd 4a45 0d3e f552 113e 79a9 24bd
000003c0: e16c d5bd 554a 80be 3d30 1e3e b881 0abd
000003d0: ef7d 793e 1c10 523e c88f ee3d f20d 0fbe
000003e0: 413c 3b3e 77f6 80bd 2f55 54bd a694 7d3e
000003f0: ff9d 0bbe d60e 46bc 359d 253e 3586 5d3d
-0.08990997 0.15835032 -0.03867743 0.09559637 -0.19451883 -0.12512848 0.018192152 -0.12724179
-0.16203621 -0.14784025 0.17349327 0.009688542 0.14254235 -0.1443255 -0.093680464 0.1103564
0.12176902 0.22252104 -0.084398486 0.06591709 -0.24407959 -0.18741143 -0.0148521615 0.18046634
-0.07060718 0.056087315 0.013745168 -0.21003026 0.13537523 -0.01936318 -0.13067225 -0.013613891
0.1825594 -0.17325474 0.079592384 -0.2140041 0.24761069 0.25296664 -0.039933275 0.072090834
0.1647276 0.19641227 -0.14009194 -0.08097204 -0.23271957 0.13441235 0.029772047 -0.10098489
-0.17595181 -0.25472537 0.080778606 -0.14265652 0.2483281 0.20429805 -0.055684865 -0.2690356
-0.0758393 0.038389597 0.036580104 0.13142619 -0.10408769 0.015096367 0.049208894 -0.09167704
0.20453142 -0.15862884 0.029562062 -0.19778164 0.24924453 0.22146147 -0.07374187 -0.00033479492
0.15468492 0.20531856 -0.1580463 -0.0789262 -0.25327462 0.12930235 0.012006742 -0.07247759
-0.19957414 -0.24823658 0.15626611 -0.19640255 0.28479865 0.15061757 -0.017268786 -0.24742062
-0.058112554 0.060644064 0.008162675 0.07638005 -0.085554734 -0.011346138 0.041685417 -0.08346907
0.0861392 0.115064986 -0.033745944 -0.07463973 0.024355551 0.14251612 0.2230156 -0.067695536
-0.22262761 -0.041332092 0.21597911 -0.109021984 -0.2983367 -0.09065619 -0.28293365 -0.08989167
-0.09950972 0.21812269 -0.34234658 -0.09103473 -0.20451972 -0.21281685 -0.45946378 -0.0067584915
-0.570892 0.1545681 0.17519954 -0.26890156 0.13308759 0.011568916 -0.27176094 -0.1927074
0.22587816 -0.16261281 0.06180287 -0.19400659 0.25790572 0.23125215 -0.054646574 0.0056808176
0.13020658 0.21460283 -0.12351322 -0.0967791 -0.29261333 0.13091883 -0.0011890952 -0.07945365
-0.206943 -0.2535992 0.14384258 -0.21662326 0.2720586 0.16834837 0.007328814 -0.27709913
-0.09710151 0.090467624 0.04709001 0.0760651 -0.10379832 -0.01944433 0.01719173 -0.14298323
0.21389188 -0.13322617 0.0863017 -0.2192368 0.28475097 0.2576953 -0.03388751 -0.0060064057
0.13687019 0.21836133 -0.12437061 -0.09770696 -0.26440594 0.15199561 -0.03587983 -0.0694756
-0.2037082 -0.27699992 0.1020934 -0.23188779 0.2844651 0.13565832 0.009450277 -0.2696501
-0.11292066 0.06586576 0.05823572 0.11948318 -0.07885499 -0.016145559 0.022691399 -0.13654236
0.059313517 -0.04005685 -0.043112013 -0.0155711835 0.097665995 -0.0026821606 -0.21785794 -0.113237
0.33549565 0.08127839 -0.11274363 -0.047998164 -0.17682691 0.21202283 0.18028949 -0.11410028
0.01927471 -0.15045546 0.28293547 -0.2640364 0.14337452 0.115098365 0.24254341 -0.054470345
0.21067575 -0.059245814 0.052347735 0.025736675 -0.028321816 0.112070076 0.042491224 0.016883805
0.057447217 -0.13205336 0.05288406 -0.061277322 0.12512279 0.06973832 -0.08913218 0.09026973
0.18838762 0.12479467 -0.18635015 0.012752601 -0.074811876 0.13795963 0.14191802 -0.040200684
-0.10421158 -0.2505671 0.15448089 -0.033815116 0.24364446 0.20513958 0.11648518 -0.13970163
0.18284704 -0.062970094 -0.05183905 0.24763736 -0.1363449 -0.012088498 0.16173251 0.054083068

context_transformer_0/kq_shared_bottleneck/norm/mul;context_transformer_0/kq_shared_bottleneck/norm/add;context_transformer_0/attention/query/einsum/Einsum;context_transformer_0/attention/query/add;context_transformer_0/attention/value/einsum/Einsum;context_transformer_0/attention/query/add/ReadVariableOp/resource;context_transformer_0/attention/Mul;context_transformer_0/attention/Mul/y f4 [32]
00000000: faeb ed3d bb61 c6bd 7ecd c6bd 0914 533e
00000010: f62f bcbd 270a adbd 720c b5bd d0e3 10be
00000020: c78e 8dbe a285 a0bc 0f58 d1bc 8568 a93c
00000030: 425f ffbc 1533 c2bd 8752 0abe 0b18 df3d
00000040: 8181 adbd dee0 fdbc 71d5 83bd fa3a 313d
00000050: 0a99 71bc 675d bdbd 136e c1bd ae88 803d
00000060: 99a9 11be 4ae4 153e b958 283e e6fc 1d3e
00000070: 4d28 153e bef0 1dbe a341 5fbe 28d1 4c3e
0.116172746 -0.09686609 -0.09707163 0.20613112 -0.09188835 -0.08449202 -0.088402644 -0.14149404
-0.27647993 -0.019594971 -0.025554685 0.020679722 -0.031173352 -0.094823994 -0.13508044 0.10893258
-0.084719665 -0.030991014 -0.06437195 0.043269135 -0.01474596 -0.09246331 -0.09444823 0.062760696
-0.14224853 0.14637867 0.16440095 0.15428504 0.14566155 -0.15423867 -0.21802382 0.20001662

context_transformer_0/kq_shared_bottleneck/norm/mul;context_transformer_0/kq_shared_bottleneck/norm/add;context_transformer_0/attention/query/einsum/Einsum;context_transformer_0/attention/query/add;context_transformer_0/attention/value/einsum/Einsum;context_transformer_0/attention/query/add/ReadVariableOp/resource;context_transformer_0/attention/Mul;context_transformer_0/attention/Mul/y1 f4 [32, 32]
00000000: fc74 f43c 4716 f9bc e9e6 e5bc cf29 6b3b
00000010: c12a 5f3d 6d72 ef3c 17fa 38bd 5969 753c
00000020: b9e2 7b3d e43b b33b f7f0 f7bb c79c 52bc
00000030: 39f7 6fbd e59b 12bd 9fe3 17bd fe33 24bd
00000040: 8041 fa3b a717 0ebd e124 a03c 2a0a cebc
00000050: ab2f 293d 1fd4 4a3d 1a14 0e3c 7213 6fbb
00000060: 7c86 aa3b f66d 3c3c 26a3 233d 2c7c 5a3b
00000070: 1c6e 40bc c2d2 f23c 4837 713c a9b6 c2bc
00000080: 65e5 d8bc af88 133d b2d5 633d dac9 94bc
00000090: 1c87 8bbd d295 bdbb a156 223d e42b b5bc
000000a0: f67f cabd e471 b83b a635 ac3b b14b ddbc
000000b0: d97e c63d 9d58 23bc d6db 00bc b126 883d
000000c0: e7ab 26bd b20a 2b3d a64d 53bc 5e34 873d
000000d0: 5099 1ebd 5d6b 68bd c41b 283c b003 00bc
000000e0: 93cc 56bc 14fb a63c 5567 8bbd ff91 b93c
000000f0: 2083 bd3c 8112 8fbd c8a4 c73c 958b 7dbc
00000100: 3b09 a9bc 79d0 103d b759 933d 1c8f 2ebd
00000110: 8359 87bd c556 8b3c 6c01 3e3d 473a f2bc
00000120: aa6b e2bd 5b57 1a3c 8009 ac3c 3f45 00bd
00000130: 6791 933d 7f15 06bb e6fa 89bc dfd6 713d
00000140: 6b81 58bd 8ff1 e23c 4e0a aebb db36 433d
00000150: 21e1 03bd ca2e 82bd 3618 26bc e6f7 d8bc
00000160: 9311 1ebd be6b c53c 602c 8bbd f4e2 153c
00000170: 417f 013d 045b 8bbd 6218 d03c 9627 1dbd
00000180: d098 b4ba 37a6 04bd 840e b9bb 4236 2bba
00000190: 58e7 b2bc 1f6f 733d 9eba 99bd 62a3 26bb
000001a0: ed77 02bd 32c3 d9bc a164 7d3c 79eb 6dbd
000001b0: aaad 8f3d c4e0 41be f3e5 3bbe 4d42 ce3d
000001c0: 109e 173c 36b6 41bc bc54 443d 998f d23d
000001d0: 56cf 0c3d 6bb2 053d f6da 9e3d 353b 1bbb
000001e0: 7067 833d 75a3 db3d c25e cdbc ae61 673d
000001f0: fea8 223c 1a97 0bbd dd8f a73d 342b 7ebd
00000200: 79e2 53bc 22cd f23c f471 9a3d 9d42 19bd
00000210: 4882 82bd ca29 6f3c d22b 4e3d 70df afbc
00000220: 0d01 00be dfca 003c ae36 9b3c 39f1 2bbd
00000230: 0aa8 9e3d b812 d9bc 9175 a5bc c041 a03d
00000240: 4360 29bd 68c6 ee3c 1e19 a3bb 0f40 6b3d
00000250: 48da 0ebd 9171 84bd 0e4a acbb 8283 12bd
00000260: 88c0 03bd 4609 fb3c ea21 b3bd 3844 e53b
00000270: aeac 0c3d 1268 a2bd e95a fb3c a5b8 0cbd
00000280: e6cf c6bc 9dde f03c a91a 843d e869 07bd
00000290: 5593 96bd 33f5 983c a60a 413d 7aec d9bc
000002a0: deb7 e0bd d908 2e3b 4a19 a73c 1832 22bd
000002b0: f498 cd3d b775 1fbd ad7e d0bc 0892 7e3d
000002c0: 17fe 11bd dde8 063d e532 90bc 3c50 6c3d
000002d0: d071 07bd 952c 64bd fa2c 373b 771f babc
000002e0: a810 fdbc 313f 103d 9b84 acbd c5ad 993b
000002f0: c488 443d 5a2f aebd 4e09 e13c 57d5 17bd
00000300: a098 6d3c ad37 8b3b ddf4 553d 80bc 1fbd
00000310: 80aa 413c aa2f 143c f476 043e 32bd b43c
00000320: 4dca 3cbd 42c2 ea3c 6f1f 9fbc eef0 0cbd
00000330: 18f9 21bd 7430 783d d837 033d fc48 19bd
00000340: 6aa4 29bd 3801 50bc a54f bcbd 1cf9 29bd
00000350: 80ab 79b9 f0d7 34bd da9f 05be ee01 04bd
00000360: 9892 24be 0652 7dbc 629c dfbc 5500 c5bb
00000370: f29d ccbc 4477 fbbc 37d3 5bbd 705e 59bc
00000380: 1f88 bdbc debb 133d 1235 163d 551a 46bb
00000390: cec7 4fbd 747b 0ebd 5556 2f3d 6f1f 48bc
000003a0: dbc5 2dbd d4f3 273c b9d4 4dba b7bf ab3c
000003b0: be02 933c a083 9a3d 3267 913d 9190 de3b
000003c0: 2768 97bc f28e 953c 9c61 c0bc 7a18 8739
000003d0: d267 e0bc 83e1 46bd 4404 c1bc 68db c03a
000003e0: e731 13bc de4e fabc d31d 11bd 22c6 abbc
000003f0: df90 783c a67d 8abc 0b18 d8bc 7706 9f3c
0.029840939 -0.03040613 -0.028064208 0.0035883074 0.054484133 0.029229367 -0.04516038 0.01497873
0.061495516 0.005469786 -0.007566567 -0.012854761 -0.05858538 -0.035793204 -0.03708231 -0.040088646
0.0076372027 -0.034690525 0.019548835 -0.025151331 0.041305225 0.0495187 0.008671785 -0.0036480096
0.00520402 0.011500826 0.039950512 0.0033338172 -0.011745002 0.029641513 0.014722653 -0.02376874
-0.026476571 0.036019024 0.055623718 -0.018162657 -0.068128794 -0.0057856822 0.039633397 -0.022115655
-0.09887688 0.005628811 0.005255419 -0.027013632 0.09692163 -0.0099698575 -0.007864913 0.06648005
-0.040691283 0.041758247 -0.012896931 0.06601785 -0.03872043 -0.056743015 0.010260526 -0.007813379
-0.013110298 0.020383395 -0.068068184 0.022652624 0.023133814 -0.06985951 0.024370566 -0.0154751735
-0.020634284 0.035355065 0.07194846 -0.04261695 -0.0660887 0.017009148 0.046388075 -0.029568804
-0.110556915 0.009420241 0.021000624 -0.03131604 0.07205468 -0.002045959 -0.01684327 0.059042808
-0.052857798 0.027703075 -0.005311287 0.047659736 -0.03219712 -0.063565806 -0.010137608 -0.026485395
-0.03859098 0.024099227 -0.06795573 0.009148348 0.0316155 -0.06804469 0.025402252 -0.03836783
-0.0013778452 -0.032385077 -0.0056474824 -0.00065312174 -0.021838829 0.059432145 -0.075062975 -0.0025426974
-0.03185265 -0.026582334 0.015465886 -0.058085892 0.07015546 -0.18933398 -0.18349437 0.100712396
0.009253994 -0.011823228 0.04793237 0.10281295 0.03437742 0.032640856 0.07756607 -0.0023686413
0.064162135 0.10724536 -0.025069598 0.05648964 0.009927986 -0.03407965 0.081817366 -0.06205292
-0.012932413 0.02963883 0.07541266 -0.037417043 -0.063725054 0.014597366 0.05033476 -0.021468848
-0.12500401 0.007860868 0.018946972 -0.041978095 0.07746895 -0.026498184 -0.020197662 0.07825041
-0.041351568 0.029147342 -0.0049773594 0.057434138 -0.034876138 -0.064669736 -0.0052578514 -0.035769947
-0.032166034 0.03064407 -0.08746703 0.0069966577 0.034344368 -0.07930006 0.030682998 -0.03435578
-0.024269056 0.029403025 0.064503975 -0.033059984 -0.0735232 0.018671608 0.047129296 -0.026602019
-0.1097257 0.0026555567 0.020397801 -0.039598554 0.10038939 -0.03893062 -0.025451029 0.062150985
-0.03564271 0.03293692 -0.017602393 0.057693705 -0.033067524 -0.05570658 0.0027950392 -0.022720082
-0.030891731 0.035216514 -0.0842373 0.0046899044 0.047981992 -0.08505125 0.027470257 -0.03706869
0.014501721 0.0042485804 0.052235473 -0.038998127 0.0118204355 0.009044567 0.12936002 0.022062872
-0.046091367 0.028657082 -0.019424168 -0.034409456 -0.039544195 0.060593084 0.03203568 -0.03742312
-0.041416563 -0.012695603 -0.091948785 -0.041497335 -0.00023810379 -0.044151247 -0.1304926 -0.032228403
-0.16071546 -0.01546145 -0.027296249 -0.0060120025 -0.024977658 -0.030696519 -0.053668227 -0.013267145
-0.023136197 0.036067836 0.036671706 -0.0030228097 -0.050727658 -0.034785703 0.042806942 -0.012214526
-0.042425018 0.010251004 -0.00078518275 0.02096544 0.017945644 0.07544637 0.07099761 0.006792136
-0.01848228 0.018256638 -0.023484044 0.00025767443 -0.027393255 -0.04855491 -0.023561604 0.0014713826
-0.008984066 -0.030555185 -0.035428833 -0.0209685 0.015171259 -0.016905617 -0.026378652 0.019412262

context_transformer_0/ffn_layer_0/intermediate_dense/einsum/Einsum;context_transformer_0/ffn_layer_0/intermediate_dense/Relu;context_transformer_0/ffn_layer_0/intermediate_dense/add f4 [32]
00000000: 3426 70be 1fa0 2cbf 2d1b 68be 3b5c 7ebe
00000010: 3b5f 21be 3e3c 89be bf85 7ebe cfd5 b2be
00000020: 0df6 37be 711f 05bf 1bb8 a5be 2c0c c2be
00000030: 61df 75be 999e 7fbe 99a8 eebe 3bd1 b8be
00000040: afdb f0bd d2a5 c4be 9e37 06bf 2188 6bbe
00000050: 3839 cfbe 7b93 e1be 86eb bebe bceb a2be
00000060: a541 1abf 7cda 6bbe d6e3 d0be 6f67 e9be
00000070: 93ac a8be 4ba0 b8be bbd9 85be 05eb babe
-0.23452073 -0.67431825 -0.22666617 -0.2483987 -0.15758984 -0.26803774 -0.24855708 -0.34928748
-0.17964955 -0.520011 -0.32367024 -0.3789991 -0.24010994 -0.24962844 -0.46613005 -0.3609713
-0.11760651 -0.3840776 -0.52428615 -0.23001148 -0.40473342 -0.4405783 -0.37289065 -0.31820476
-0.60256416 -0.23032564 -0.40798825 -0.45586726 -0.32944164 -0.36059794 -0.26142678 -0.3650743

context_transformer_0/attention/norm/mul;context_transformer_0/attention/norm/add;context_transformer_0/ffn_layer_0/intermediate_dense/einsum/Einsum;context_transformer_0/ffn_layer_0/intermediate_dense/Relu;context_transformer_0/ffn_layer_0/intermediate_dense/add f4 [32, 32]
00000000: 778a c1bd 6302 963d b7b9 9bbc bedb edbb
00000010: d063 34bc edc6 1c3d 0eaf 033e 0a0a 123e
00000020: 3e41 df3d 20ff 1cbd ff05 fc3c acba a9bd
00000030: 172d 583d 4907 b7bd d455 223d 25db 113e
00000040: 5698 923e c29c b73d e7b7 ab3c be28 a43d
00000050: 83c1 eebd 4372 84bc 2ce0 5a3e c171 463c
00000060: ccb4 89bc 3fbf 843e 60e0 90be c138 073d
00000070: 641e ab3d 42b6 20bd 97f9 70bc b997 2cbd
00000080: 9a48 bdbe 4969 84bd f0e2 883e 3efb d03d
00000090: 61f1 21bd 66b6 80be 77c7 943d 29bb 9d3e
000000a0: cc67 88bd 4ca6 29bd f330 4738 af2a 1f3e
000000b0: cd51 8abd d203 87be de99 78be 911b 913e
000000c0: 1fb7 0f3e bae7 683c 6a6c 0ebd cdd9 503d
000000d0: d9ea 0d3e 7920 d93c 83cb 8abd 0064 38be
000000e0: dd4e 0abe 7bbb 353e d7ac ed3c 1f0e f63e
000000f0: ecc5 a3bc e890 46bd c5b9 653d 3591 0abe
00000100: c0c9 59bd 53da bf3d e261 6dbd e987 ae3d
00000110: 15e7 4fbd 388c 363e cc7b adbc 82ec 123e
00000120: a7c4 793e 4f05 0e3e 8299 3f3e bc4b 02bd
00000130: cdd9 2b3c 5154 c9be 3655 e7bd 4cdf 9cbc
00000140: baee 45be fb6e 5cbe 3217 953e cdcb c43e
00000150: dcbf 263e f702 b6bc 4071 6ebd c02e a53e
00000160: d369 24be 1d37 223c 0010 133d 4614 91be
00000170: d457 053f e211 39bd 631c bf3c 19de 803d
00000180: 966d 86be 65b9 6dbe 5ccb 94be 9e79 c5bd
00000190: 0dc0 413e 6704 813e f4b3 893e 616c a83e
000001a0: 45ea 4ebd 8d91 433d f678 69bd adec ce3c
000001b0: 7a5f 37be 7c9d 46bd 3e9f 733e 368f c33e
000001c0: 5143 643e ece1 573e a4e2 053e f843 333d
000001d0: bd53 99bc a465 f8bd 64b3 dc3e d75a f33d
000001e0: 0cfb 713e 2e74 cb3e add6 b9bc 6fbd 583e
000001f0: d68d 253e 2d69 35be 7162 de3d 0ede f2bd
00000200: d379 ecbc dd7d 9b3c 43b1 503c cf23 dbbc
00000210: 7bca 0b3d fb26 943c 38dc b83c 709e 983d
00000220: a68a 283c da4f 5a3d 7566 c0bc 5a86 ecbc
00000230: 179b a3bd 20fd 7a3d e097 adbd 12a8 233d
00000240: d492 6abd 1635 20bc ac42 09bd afe5 ad3d
00000250: 3187 47bc a279 b9ba eb20 cc3c c433 44bd
00000260: 82f1 9d3c 3b47 653d 6c31 bf3c 3030 823d
00000270: 1daa 333d aaa5 02bd 7dad f7bb 98ef 2abd
00000280: 5c18 0cbe 3dc7 8cbe 5860 91bd 969d 1d3c
00000290: 3fa8 05be 78b7 e7bd a698 ef3e 93a4 e13e
000002a0: ee77 5c3d 12d3 c53e 8fa0 5dbe e49f 083d
000002b0: 9c99 8a3e 98e5 453e e48e 00bc c35f 9a3d
000002c0: 63c7 41be 0ef3 6f3d 16d9 ebbd a73f b63e
000002d0: 827b 8abc 9306 e0bd c4a1 05be c699 0bbd
000002e0: 3cf7 973e b13a bbbd 6db4 7e3e 626b 0e3e
000002f0: e028 a33e 3dc8 d2bd bbf7 583c f131 9ebe
00000300: 07e1 2d3e e604 973d b094 d73c 9579 1fbe
00000310: c5dc 143e 7c2f 79be 8021 433e 7f21 563d
00000320: c4be af3d ec76 ba3d 3e6f 1ebe 8324 9cbd
00000330: 198a 14bf 31f7 523e 4a41 a7bd 8915 babd
00000340: fee1 943e f4ba 563e 0a82 2fbe d824 763e
00000350: 6259 b4bd 2852 263e 0137 db3d 18ab 05be
00000360: 92e6 bbbe f1cc 6cbe c190 8fbc 0748 2e3d
00000370: ab47 903e c880 c9be e133 16be 423c 70be
00000380: 2bc2 7dbe 4c87 bd3d 9c41 733e 23b5 1e3f
00000390: 28f4 323e bc13 04be 444a 21be 5c8f b83e
000003a0: 5dff 3ebe 37d9 a13c 1538 cebd 6027 5e3d
000003b0: 37fa e8be df3b 25be e122 7cbe 0316 cebd
000003c0: 56a3 c53d c919 dcbe 0117 c83d 4d13 7c3d
000003d0: c9bb 0f3d 5d66 b73d 206d 5b3e e1ee 0d3d
000003e0: 076f 66be e9d1 0c3e 0c9f 163e cfe1 983e
000003f0: e110 b13c 6849 70be 18ef eebd db0f 1bbd
-0.09450238 0.07324674 -0.019009454 -0.0072588613 -0.011010125 0.038275648 0.12859747 0.14261642
0.10901116 -0.038329244 0.030764578 -0.08287558 0.052777376 -0.089369364 0.039632633 0.14243753
0.28631848 0.08965446 0.020961715 0.080155835 -0.11658003 -0.016167765 0.21374577 0.012112082
-0.016809843 0.2592716 -0.28296185 0.03301311 0.08355406 -0.039236315 -0.014707944 -0.04213688
-0.36969453 -0.06465394 0.2673564 0.10204171 -0.039536837 -0.2513916 0.072646074 0.30806854
-0.06660423 -0.04141836 4.7490885e-05 0.15543626 -0.067538835 -0.26370102 -0.24277446 0.28341344
0.14034699 0.014215404 -0.03477136 0.05098896 0.13859119 0.026504742 -0.06777098 -0.18006897
-0.13506646 0.177473 0.02901308 0.4805765 -0.019991837 -0.048478037 0.056085367 -0.13531955
-0.05317092 0.09367814 -0.057954676 0.085220166 -0.050757486 0.17826927 -0.021177195 0.14348033
0.24391423 0.13869213 0.18710902 -0.031810507 0.0104889395 -0.3932214 -0.112955496 -0.019149445
-0.19329348 -0.2152671 0.2911926 0.38436738 0.16284126 -0.02221821 -0.058213472 0.3226223
-0.16055994 0.009900835 0.03590393 -0.2833578 0.5208714 -0.04518307 0.023328966 0.06292362
-0.26255482 -0.23215254 -0.290614 -0.09642337 0.18920918 0.2519867 0.26895106 0.32895187
-0.050516386 0.04774623 -0.057000123 0.02525934 -0.17907515 -0.048490033 0.23791215 0.381952
0.22291304 0.21082276 0.13074738 0.043765992 -0.018716687 -0.121287614 0.43105614 0.11882561
0.23630923 0.39737076 -0.022685373 0.21166013 0.16167387 -0.17715903 0.1085862 -0.1185876
-0.028866684 0.018980915 0.012737575 -0.026750473 0.034128647 0.018084994 0.022565946 0.074520946
0.010286963 0.05329881 -0.023486355 -0.028872658 -0.079885654 0.061276555 -0.084762335 0.039955206
-0.057268932 -0.009778282 -0.03351085 0.08491074 -0.012178228 -0.0014150629 0.02491804 -0.04790093
0.019280199 0.055976134 0.023338996 0.06356847 0.043863405 -0.03189627 -0.007558523 -0.0417324
-0.13681167 -0.27495757 -0.07098454 0.009620091 -0.13052462 -0.11314291 0.4679615 0.44070873
0.05382531 0.38637596 -0.2164328 0.03335561 0.2707032 0.19325864 -0.007846568 0.07537796
-0.18923716 0.058581404 -0.11516015 0.35595438 -0.016904596 -0.10938754 -0.1304999 -0.034082197
0.29680812 -0.09142054 0.24873514 0.13908151 0.31867123 -0.10292099 0.013242657 -0.30897477
0.16980372 0.07373981 0.026316017 -0.15573724 0.14537342 -0.2433452 0.19055748 0.052278038
0.085813075 0.09104714 -0.15472123 -0.076241516 -0.5802322 0.20602109 -0.0816675 -0.09086139
0.29078668 0.20969754 -0.1713945 0.24037492 -0.08806111 0.16242278 0.107038505 -0.13053548
-0.3669935 -0.23125054 -0.017525079 0.04254916 0.28179678 -0.39356065 -0.14668228 -0.23460487
-0.247811 0.092543215 0.23755497 0.6199514 0.1747595 -0.12898153 -0.15750986 0.36046875
-0.18652101 0.019756896 -0.100692905 0.05423677 -0.455034 -0.1613612 -0.2462268 -0.10062792
0.096502945 -0.42988423 0.09770013 0.061541844 0.035091195 0.08955071 0.21428347 0.03465164
-0.22503291 0.1375195 0.14709109 0.29859778 0.021614494 -0.23465502 -0.11666697 -0.037856918

context_transformer_0/ffn_layer_1/intermediate_dense/einsum/Einsum;context_transformer_0/ffn_layer_1/intermediate_dense/Relu;context_transformer_0/ffn_layer_1/intermediate_dense/add f4 [32]
00000000: 1d3d 94be cc49 c8be efbd 38be 5c6d 2cbe
00000010: c227 ab3b 478e 4bbe 5dbb 48be 0790 80be
00000020: f945 91be 87e0 c4bd b399 69be 3823 6abe
00000030: 45c6 a5be 96e2 e2bd 415e adbe 3ce4 51be
00000040: 6c34 a6be cf89 a1be 3989 20bd 5e2d aabe
00000050: 0a31 02be 7438 9fbe 1955 e7bd 75b6 24bd
00000060: d555 b1be 8069 24bd 0957 b7bd cb2d a6be
00000070: 44a9 03be 88da 0fbe ad7d 67be 76cb 00be
-0.28952876 -0.39118803 -0.18041204 -0.16838592 0.0052232454 -0.19878493 -0.19602723 -0.25109884
-0.28373697 -0.09613138 -0.22812538 -0.22864997 -0.3237783 -0.11078374 -0.33860973 -0.20497221
-0.3246187 -0.31550452 -0.039193366 -0.33237737 -0.1271402 -0.31097758 -0.11295528 -0.040213067
-0.34635797 -0.040139675 -0.089521475 -0.32456812 -0.12857538 -0.14048207 -0.22606535 -0.12577614

context_transformer_0/ffn_layer_0/norm/mul;context_transformer_0/ffn_layer_0/norm/add;context_transformer_0/ffn_layer_1/intermediate_dense/einsum/Einsum;context_transformer_0/ffn_layer_1/intermediate_dense/Relu;context_transformer_0/ffn_layer_1/intermediate_dense/add f4 [32, 32]
00000000: 1297 0abd 4c82 37be 2815 2dbe e671 f53b
00000010: 5c3b bebd bbd3 72bd 3b6d d43e 9a7b 7cbd
00000020: be30 90be c08b 1c3d d9cc 27bd 7e28 9f3c
00000030: ddee 64be b04f b93c bc6f 3bbd dd26 0d3d
00000040: 0573 a4be 6401 8f3b 37ea 82bd beda 553d
00000050: a15a 083e 8db3 a3bd 01e6 cbbc 07fb 9b3d
00000060: 7a07 adbb b84a 873c ca66 b13e 54bb ff3d
00000070: f64e d63d 92de b6be 7a19 343e 1bff ce3d
00000080: 43d3 243c fac4 64be 39bf a43d 86d1 c43e
00000090: 6b9c 6e3e 60b7 abbd 100b 02be 8855 3b3e
000000a0: f8fb 04bd a9ee df3d 0bc4 d3bc ab0d 4abe
000000b0: 4482 d73e 50e7 b8bd c722 a7bd 98d0 95be
000000c0: 9e25 c93e de16 f3bd 9087 7c3d b3d6 443e
000000d0: 02c3 bebd c57e 2bbe 8c32 abbb 51f4 f4bc
000000e0: 64aa 47bc 44fa 58be dec5 04bd b3ae 88bd
000000f0: 4fa8 ac3c 758e 293e 09b2 5cbd 7353 c2bd
00000100: 638e f03d a976 fc3d e664 e0be db31 593e
00000110: 06b4 a93e 014e ee3d 6ca5 3ebe 2221 fdbd
00000120: b60c 0bbe 5e21 443e 19ad cf3d 28df 19be
00000130: b575 a7be 0ec5 563e 08df d43d c2ea 83be
00000140: 7e2c 693e 3605 bcbe f8d2 0e3d aadb 903d
00000150: 3c96 b5bc 310d bc3d 2504 d3bd 3e13 05bd
00000160: c81e 2ebc deec 31be 3c3e e5bd 149f 9cbe
00000170: 42c1 683d 1a01 84bb c983 ec3c 75c2 963e
00000180: 6db0 983c 8bc2 11bd 7d0e 85be 7263 d0bc
00000190: 9920 473e 27a4 963d 8f0a 5dbe 16d7 5e3d
000001a0: 3b95 80bd 74ac 06bd f6f6 9f3e 703e 9c3d
000001b0: 3ffc e93c dc6e 90be 67e3 913e a179 44be
000001c0: d40d cc3d 70c7 8ebd 50c5 933b da58 4a3d
000001d0: eceb 473d 51ca b3bc 3e16 003f e906 993c
000001e0: 674e a2bc 9621 8dbd e3f4 a93e 900f 523e
000001f0: 6c64 9a3d ac00 09be c14c 8dba ff1a 6dbb
00000200: ca8d 4b3d 9a7c b3be e6ac 2abe e852 f8bd
00000210: 373a e9bd b50a a4bd 77dc 1d3f fedf 843e
00000220: 97d0 893d 1f69 283e 0b32 48be 6d36 29bc
00000230: 34d0 033e 0105 813d afbe 5abe f931 9dbd
00000240: abdf 24be 3f07 533e cf7e dfbd 543b c03d
00000250: 80db 463e 57de f33a 242f 0dbe cc12 a0bd
00000260: 61a7 033f adff 87bd 5a47 123e a32d febd
00000270: e8c7 053b 8894 a0bd 4650 8fbc ee24 2abe
00000280: 1ed5 2fbe 43d1 febd 6bb6 a23e ab03 7c3d
00000290: d9f7 d43d 8f62 88be e7f7 523e e695 213f
000002a0: f42c c5bd a5d0 0b3d f364 d1bd 2d04 133e
000002b0: 567c 81be bc1e bebd 420a bbbe 4034 763d
000002c0: 2893 ff3c 51b4 273e 35ca dd3d d8f7 663d
000002d0: 27ac 81bd 8ef2 5d3c 0473 e83e f855 6bbd
000002e0: 5df0 9b3b 1686 183d 105a ef3d 9976 9b3d
000002f0: 661a ae3d 314a 49be 6a97 ccbe aad0 10be
00000300: 1589 49be 03cb 91be d18c 23be e689 023e
00000310: bfcc 903e 16e3 453d 28f9 383d 398b 0a3e
00000320: a86e c2bd 1c71 3d3d c54f 253e 99ab 833e
00000330: d77d e1bd 6eb7 943d 9ae0 adbd 580a c3be
00000340: 8745 73bc 3ab8 9cbd a3c9 963d 4f82 393c
00000350: 72e4 373d 3e55 bcbd 51c2 15be a59a 80bd
00000360: b535 1f3e 7f56 8bbe 1e56 bc3d 5b1c 92be
00000370: 98be 94bc 825c cfbd a7f6 d23e f3a3 99be
00000380: d63b 683c 7476 1bbe bc44 103d e6fa 213f
00000390: 2f9b cc3e 770b eb3d 6fda 89bd 9754 2b3d
000003a0: 8927 cbbe 81f0 a9bd d941 4abe fe86 aaba
000003b0: ac1c fb3d 7c35 483e 5dfd d23d 20a3 993d
000003c0: c108 53bd 8cee 1a3d 1b9e 40be ccd9 5abd
000003d0: 9583 7d3e ad7c 8dbe 2dd8 c03e 4493 b3bd
000003e0: 59f5 033c 5cb6 0e3e 96d7 30be 0a91 b23d
000003f0: 5021 93bc 7b4c 693d 5a1b 1d3e fde7 413b
-0.033835478 -0.17920798 -0.16902602 0.0074903844 -0.09288666 -0.059283953 0.41489586 -0.061641313
-0.28162187 0.038219213 -0.040966842 0.019428488 -0.22356744 0.022621006 -0.045760855 0.03446089
-0.32119003 0.0043641794 -0.06392329 0.052210562 0.13315822 -0.07993231 -0.024889948 0.07616239
-0.0052804323 0.01651512 0.34648734 0.12486902 0.10464279 -0.35716683 0.17587844 0.10107251
0.010060134 -0.22340766 0.08044285 0.38441104 0.23301856 -0.083845854 -0.12699533 0.18294346
-0.03246686 0.10934193 -0.025850317 -0.19731776 0.42091572 -0.09028494 -0.0816093 -0.29260707
0.39286512 -0.11869596 0.06165272 0.19222526 -0.093145385 -0.16747577 -0.0052245315 -0.029901655
-0.01218662 -0.21189219 -0.032415263 -0.06673946 0.02107635 0.1655825 -0.053880725 -0.09488573
0.11745908 0.1232732 -0.4382698 0.21210425 0.3314516 0.11635972 -0.18617791 -0.12359835
-0.13579068 0.19153354 0.10140438 -0.15026534 -0.3270699 0.20973608 0.10394102 -0.25765043
0.22770879 -0.36722726 0.034869164 0.070731476 -0.022166364 0.091822036 -0.10303525 -0.032489054
-0.010627456 -0.17375514 -0.11193511 -0.30590117 0.05682493 -0.0040284516 0.028871434 0.29445234
0.018638814 -0.03558592 -0.25987616 -0.025438044 0.19446029 0.07355528 -0.21586059 0.05440434
-0.062784635 -0.032879308 0.31243104 0.076290965 0.028562663 -0.2820958 0.28493807 -0.19187023
0.09963575 -0.069716334 0.0045096055 0.04940114 0.048808977 -0.021947058 0.5003394 0.018680053
-0.019812776 -0.06891172 0.33194646 0.20513749 0.07538685 -0.13379163 -0.0010780321 -0.003617942
0.049695767 -0.35056 -0.16667518 -0.12125188 -0.11388057 -0.08009855 0.6166453 0.25952142
0.067292385 0.1644635 -0.1955034 -0.0103279175 0.12872392 0.062997825 -0.21361803 -0.07675547
-0.16100948 0.20608233 -0.10912859 0.09386316 0.1941967 0.0018605691 -0.13787514 -0.07816085
0.51427275 -0.06640563 0.14285031 -0.12411048 0.0020413343 -0.0784083 -0.017494332 -0.1661565
-0.17171142 -0.12442257 0.317798 0.061526936 0.10398836 -0.26637694 0.2060238 0.6311935
-0.09627715 0.034134526 -0.10224333 0.14357062 -0.25290173 -0.09283206 -0.36531264 0.060108423
0.0311981 0.16377379 0.108295836 0.056388706 -0.063316636 0.013546599 0.4540025 -0.057455033
0.004758878 0.03723725 0.116871 0.0759098 0.08501129 -0.19657208 -0.3995927 -0.14142099
-0.19681199 -0.28475198 -0.15971686 0.12747917 0.2828121 0.04831227 0.04515949 0.13529672
-0.09493762 0.046250448 0.16143711 0.25716856 -0.1101033 0.07261549 -0.08490105 -0.3809383
-0.01484812 -0.07652326 0.07362678 0.011322572 0.044895597 -0.09195946 -0.14624907 -0.06279496
0.15547831 -0.2721443 0.09196113 -0.28537259 -0.018157288 -0.10125066 0.41203806 -0.30007896
0.014174422 -0.15181905 0.0352218 0.63273466 0.39962146 0.11476796 -0.06731116 0.041828718
-0.396786 -0.082978256 -0.19751681 -0.0013010202 0.12261328 0.19551653 0.103022315 0.07501817
-0.05152202 0.037825152 -0.18810312 -0.053430364 0.24757226 -0.27634183 0.3766493 -0.08768323
0.008054101 0.13936752 -0.1726974 0.0871907 -0.01796022 0.056957703 0.15342465 0.0029587739

context_transformer_0/ffn_layer_2/intermediate_dense/einsum/Einsum;context_transformer_0/ffn_layer_2/intermediate_dense/Relu;context_transformer_0/ffn_layer_2/intermediate_dense/add f4 [32]
00000000: 20bd 0ebe b50a 00be 1f11 3dbe c5e3 99be
00000010: 899d c7bd a83f a3bd dce1 3fbe 56cd 9abe
00000020: 0530 a6be 484a 8abe e46f ccbe dd51 c0bc
00000030: 8a74 6abe bde9 8dbe 030e f3bd 47be 1fbe
00000040: c9b1 ccbd 0049 98be c6f2 cbbd 3720 9c3d
00000050: 9b4e 36be 0f53 4dbe bc0b cabd 2866 bdbb
00000060: 5aaf a3bd 562f c5bd a8b0 7abe b27d e5bc
00000070: 376e 18be c00c 98bd b7a0 adbd 1695 59be
-0.13939333 -0.12504084 -0.18463562 -0.30056587 -0.09746844 -0.07971126 -0.18738502 -0.30234784
-0.3245851 -0.27009797 -0.39929116 -0.023476535 -0.22896019 -0.2771739 -0.11867907 -0.15599929
-0.09994847 -0.29743195 -0.09958415 0.07623332 -0.17803423 -0.20051216 -0.098655194 -0.0057800002
-0.0799243 -0.09628169 -0.24481452 -0.028014038 -0.14885794 -0.07424307 -0.084779195 -0.21248278

context_transformer_0/ffn_layer_1/norm/mul;context_transformer_0/ffn_layer_1/norm/add;context_transformer_0/ffn_layer_2/intermediate_dense/einsum/Einsum;context_transformer_0/ffn_layer_2/intermediate_dense/Relu;context_transformer_0/ffn_layer_2/intermediate_dense/add f4 [32, 32]
00000000: 76cd 44bc 2f1f a13e 6fbb 78be 03a6 c6bb
00000010: 9679 19bd ce3e 8f3d d483 a9be fad2 2ebe
00000020: d264 a7bc b8fd cc3b 5411 613e 971b 0bbd
00000030: 4ce0 e6bd ed27 cebd ba33 453e ea77 b33d
00000040: f929 263d f1e2 a13d febf 4dbc 12be 153d
00000050: dccc c33c 212a 9e3d 3d03 873d f822 c93c
00000060: d6d0 79be 2479 163d 1a25 43be aa2b 27be
00000070: eb35 33bc d469 01be a7ae 873c bde1 c83e
00000080: 966a 823d 9ea3 023e 1405 87bd 2ee5 b33e
00000090: a2d3 293e 1aa8 a13d 65e4 043e 4ad2 2bbd
000000a0: 784e 89be d625 b63e 5a97 14bd e5cf 71be
000000b0: 827e 73bd 1fb2 8d3e 478f 563e 54b2 0dbe
000000c0: ade8 3f3c 934d 57bd 7781 19be 3b95 7c3d
000000d0: 260b 8cbe 74b6 b43d 4b15 503d f8e9 a2bd
000000e0: 720c 31be 20c0 a8bd e39d dfbd 154a 843c
000000f0: 5541 c13d ccc7 4fbd 2a77 163e abb8 f0bd
00000100: 0855 9abc 3a9b 08bc 5412 8239 38c7 12bc
00000110: 9c42 99bb 3a8f d9bc 0043 c33b 4545 2a3c
00000120: b031 2dbc 4a08 6f3d 42b5 af3c 5f1f 0c3d
00000130: b58a 80bb 6b06 2cbd e181 a6bb 6456 423a
00000140: 5806 203d 9eeb 74bb 9028 b33c 36c7 4c3d
00000150: f4e0 42bc 5d3b 743b ef6b 113c 5c84 3ebc
00000160: 78dd b9bc 6a33 10bd d37e 27bb 7901 8b3c
00000170: 914f 303d 5db1 ffbc 5e67 1c3c a611 4cbd
00000180: ec4c 47be 4b70 fa3d 61b2 3fbe efff 653b
00000190: 92c4 ba3c 9a75 013d 80b1 e83d a87f ca3c
000001a0: 516a e1bd f44b 9b3c 665d 8fbd 24f8 8dbd
000001b0: 4d24 c43d f9fb e63d 298e 513e 5e23 203d
000001c0: 9cc9 0c3e 7b19 2abd db4e df3d 2288 d63d
000001d0: 7fbe 90bd 07b1 663d f1b2 353e a67a ca3d
000001e0: 4455 dcbc 68d0 b83d 1414 e73d 0fb5 b03d
000001f0: 5239 a33e aefa c3be 59ee 8fbd 9024 1a3e
00000200: 9e13 0c3b eb50 0dbb 3161 ab3a 923d c13c
00000210: 3f12 3dbc 9396 a1bb 40bd 6d3b 23dd 2b3c
00000220: 5306 10bc a84d 5a3d a19e 88bb 539b c03c
00000230: 0978 ca3c ddde adbc abf3 00bb f174 233b
00000240: 75a8 a83c 622f 1f3c c21f da3c 7ad4 8b3c
00000250: 8dbf 8ebc 4a4b df3c e5b3 953b b1fe 6cbc
00000260: 0a6e f93b d2be 19bc 1936 483c f253 cc3c
00000270: 10bd 913c c162 babc 627e 383c 9bab 3b3c
00000280: b8b9 aa3c 4b7e a0be 5f12 ea3d aa1f fa3d
00000290: 72ac 2b3d 5712 df3c 653a 873e f22e 293e
000002a0: d248 343e 04cf 9c3d 8de8 0bbe 136a b43d
000002b0: 16cc 4dbd 62e3 9ebd 0905 29be 96d7 debd
000002c0: e21b 37be 12bf 9f3d 4a7d 923c c180 c93d
000002d0: 4391 733d 2846 f6bd e9f9 ccbd 99d3 06bd
000002e0: 2ad9 7f3d c3a2 e03c ed0b e2bd 998a 6b3d
000002f0: df47 92bb 64d4 d33d 48a4 103e e415 313e
00000300: 02d2 803d 1732 5e3e d2f4 d63d 5df8 893e
00000310: 8582 f13c c5e6 063e 0527 ecbd dd21 e4bd
00000320: 17d3 b53c 8711 9b3d 56e4 acbd 8f53 5cbe
00000330: ff48 acbd 81b4 083e 0242 28be e9eb 25be
00000340: 223d 86bd d37f e33d ef50 33bd dff3 933d
00000350: 0f66 1bbe 3756 5f3e a7f8 e1bd e75e 0dbd
00000360: 337c 6bbe 90b1 b5bd 2fbd f3bd 776b 43be
00000370: 422a 4cbb 791d c43d f9f7 ca3b a860 943e
00000380: 931f 40be c863 143e 22ea f73d f702 d2bb
00000390: de5f 21bd 9aab 6bbe 9065 bbbc f50d a03d
000003a0: 977a 8dbd 42d2 9c3d b910 88be b448 d4bd
000003b0: 948c 543e 92cd bfb9 8256 043e 1258 ec3d
000003c0: 0c79 f1bc 1e98 ecbd 1d90 b63d 9271 ba3d
000003d0: 01a5 abbd 803e 01be 89b0 09be 1b79 bcbd
000003e0: 6376 01be d707 d3bd 6d2c 133e 2b0e 463e
000003f0: 58d7 95bc c424 54bd a6a8 adbd 2055 51be
-0.012011876 0.31469104 -0.2429025 -0.0060622706 -0.03746947 0.06994401 -0.3310839 -0.17072669
-0.020433817 0.0062558316 0.21979266 -0.03396186 -0.1127325 -0.10066209 0.19258013 0.08763106
0.040567372 0.07904614 -0.012557982 0.03655822 0.023901395 0.07722879 0.065924145 0.024552807
-0.24396071 0.036736622 -0.19057122 -0.1632525 -0.010938148 -0.12638026 0.016562773 0.39234725
0.06367986 0.12757728 -0.065927655 0.35135788 0.16584638 0.07893391 0.1297775 -0.041948594
-0.2681768 0.35575742 -0.036277153 -0.23614462 -0.05944682 0.27674958 0.20953093 -0.13837558
0.011713189 -0.052564215 -0.14990793 0.061665755 -0.27352256 0.08823863 0.050801557 -0.07954782
-0.17289904 -0.0823977 -0.109187864 0.016148606 0.09436289 -0.05072765 0.14693895 -0.117539726
-0.018839374 -0.00833779 0.00024809188 -0.00895863 -0.00467713 -0.026557554 0.0059589148 0.010392492
-0.010570928 0.058357514 0.021448735 0.034209605 -0.003922785 -0.04199831 -0.0050814007 0.0007413386
0.03906855 -0.0037371884 0.021869928 0.04999467 -0.011894453 0.0037266829 0.008875831 -0.011628237
-0.022688612 -0.035205282 -0.002555777 0.016968476 0.04304463 -0.031212503 0.009546129 -0.04982152
-0.19462937 0.122284494 -0.1872039 0.0035095175 0.02279881 0.031606294 0.113619804 0.024719074
-0.11006606 0.018957116 -0.07000236 -0.06932095 0.09577236 0.11278529 0.20464386 0.03909623
0.13748783 -0.041528206 0.10903712 0.10475184 -0.07067584 0.05632117 0.17744042 0.098866746
-0.026896127 0.09024125 0.112831265 0.08628284 0.3187967 -0.3827719 -0.07027883 0.1505301
0.0021373997 -0.0021563123 0.001307523 0.02358893 -0.011539995 -0.00493128 0.0036276132 0.010489735
-0.00879057 0.053296715 -0.0041693007 0.023511564 0.02471544 -0.021224434 -0.0019676487 0.0024941529
0.02058814 0.009715887 0.026626471 0.01706909 -0.017425323 0.02725758 0.0045685642 -0.01446502
0.0076119946 -0.009383874 0.012219929 0.024942372 0.017790347 -0.022752168 0.011260601 0.011454488
0.02084051 -0.31346354 0.11429285 0.12213071 0.041912504 0.027230425 0.2641174 0.16521814
0.17605904 0.076566726 -0.1366293 0.088092946 -0.05024346 -0.077582136 -0.16505827 -0.108809635
-0.1788173 0.07800116 0.017882008 0.09839011 0.059464704 -0.120251 -0.10008604 -0.03291664
0.062462963 0.02742136 -0.11037431 0.057505224 -0.004464134 0.10343245 0.14125168 0.17293507
0.06290056 0.21698795 0.104959145 0.269473 0.029481182 0.13173969 -0.1153088 -0.111392714
0.022195382 0.075717025 -0.08441989 -0.2151625 -0.084123604 0.13350107 -0.1643143 -0.16203274
-0.06554629 0.11108365 -0.043778356 0.07224249 -0.15175651 0.21810232 -0.11033755 -0.034514334
-0.22996597 -0.08871758 -0.11901318 -0.19083963 -0.0031153117 0.09575934 0.0061941114 0.28979993
-0.18762045 0.14491189 0.12105204 -0.006409045 -0.039398067 -0.2301468 -0.022875577 0.07815162
-0.06908148 0.07657291 -0.26575258 -0.103654295 0.20756751 -0.0003658352 0.12923625 0.115402356
-0.029476665 -0.115524516 0.08914206 0.09103693 -0.08381081 -0.12621498 -0.13446249 -0.092027865
-0.12642817 -0.1030423 0.14372416 0.19341342 -0.01829116 -0.051792875 -0.08479433 -0.20442629

context_transformer_0/ffn_layer_3/intermediate_dense/einsum/Einsum;context_transformer_0/ffn_layer_3/intermediate_dense/Relu;context_transformer_0/ffn_layer_3/intermediate_dense/add f4 [32]
00000000: 6f12 09be 9556 1bbe ba0a 04bd eda9 2b3d
00000010: e701 20be 0ce7 c3bd f0ea 94be 5a1f 08be
00000020: 71af e7bd fd60 8abe 6eb4 94be cef4 88be
00000030: 9a52 173d 5f82 8bbe 3fee bfbc 7bbd abbd
00000040: 0c40 53be 8d3f 3fbd b7ed c83c ad7b 9bbe
00000050: e4ff a6be fc60 8dbd 7b25 ecbd 39c3 14be
00000060: 831f 883d 6034 7fbe c7da 87bd 4da9 a1bd
00000070: fa95 7dbe 177f 68bd 1f5e 94bd bc8f 7fbe
-0.13385938 -0.15169747 -0.032236792 0.0419101 -0.15625726 -0.09565553 -0.29085493 -0.1329321
-0.1131276 -0.2702712 -0.29043907 -0.2674927 0.03694401 -0.27247903 -0.023429034 -0.0838575
-0.206299 -0.046691466 0.024527414 -0.30367795 -0.32617104 -0.06903264 -0.11530586 -0.14527597
0.066466354 -0.24922323 -0.06633525 -0.0789362 -0.24764243 -0.056761827 -0.07244515 -0.24957174
